utils_ex9/rnn_data/rnn_weights.npz (npz, 88682 bytes, 6 tensors)

arr_0 (column-major) f8 [100, 5]
000000 0d 76 da 99 bf 8c c2 3f 13 b6 22 3f 08 c9 e1 bf
       0.14492030155535965 -0.5557900651089674
000010 b6 9d 7a 78 bf b0 ac bf 45 1a 98 0d d7 4d d2 bf
       -0.056035979706674 -0.2860009796862964
000020 be bc b2 d7 f1 23 ec bf 60 ef 71 5c 3d d1 ef bf
       -0.8793877804618189 -0.9942919545714908
000030 27 b4 db 8a e3 7a d5 3f 03 4a 6e 1a 4e 14 ed 3f
       0.33562553940174883 0.9087286487795726
000040 83 d7 0a 6f de db b6 bf 50 2f 50 18 1b 7a a1 bf
       -0.08929243288988968 -0.034134718625948524
000050 5c 1e c2 5e f3 cb e2 3f 3c 6e 04 7c 1d 52 d7 bf
       0.587396321367986 -0.36438691245141164
000060 af 3f 54 c9 c0 bc ed bf 8a 3f 1d 2a 35 7a 95 bf
       -0.9292911464890404 -0.020973997779321553
000070 00 92 96 e2 63 4d e4 bf 7e 23 26 dc 2c 17 b4 3f
       -0.634447042994509 0.07847862601023611
000080 7e 3b 09 bf ae e7 ec 3f 58 c3 e5 50 74 1f eb bf
       0.9032815676854253 -0.8475896434812098
000090 dd 75 3b a0 16 d0 e4 bf 00 78 98 4d 3b 5e a1 3f
       -0.6504014138733357 0.033922055456272915
0000a0 8e ad 08 a2 73 40 d2 bf d5 dc 62 e3 68 d5 da bf
       -0.28518381904242396 -0.41927549558336114
0000b0 bc b5 36 d7 56 87 a4 3f a1 a8 41 78 ff 14 ee 3f
       0.04009505631561747 0.9400632237204897
0000c0 81 a5 2b 8b 42 66 e5 3f 97 8f c2 07 e9 dd b0 3f
       0.6687329023526872 0.06588608207181178
0000d0 38 01 52 ac c2 8c c0 3f 63 e9 ce 1e 41 b8 eb 3f
       0.12929566778258006 0.8662419893001182
0000e0 04 7b 0f 75 04 d1 b6 3f 68 37 f1 a8 c9 ee f1 bf
       0.08912685258790637 -1.1207977866465288
0000f0 06 3a 70 18 1c 74 8c 3f ba 66 44 0a 3d 37 8b 3f
       0.013893336768913588 0.01328895270903573
000100 a2 44 6c 5c bc 58 e9 bf 44 ed 78 c7 8d 77 91 3f
       -0.79208200503685 0.017057624149157805
000110 c2 e8 10 f2 ca 57 e2 3f 5d d2 3c 30 02 da ab bf
       0.5732168891766138 -0.054397648228051244
000120 3c 1f f3 33 41 87 e0 bf ee 0f 8f 39 10 d4 d8 bf
       -0.5165105833666312 -0.3879433214281097
000130 31 79 d6 9d 4b 03 e9 bf 80 54 41 9c 0d e2 92 3f
       -0.7816522677201531 0.018440449392376213
000140 5f 27 1b be 8c 60 e4 bf f5 f5 74 0d 9f 48 db bf
       -0.6367858613022966 -0.4263074523367714
000150 ad fd bd 13 9b e9 c1 bf b7 1a a7 f9 3b d0 e8 3f
       -0.1399415823361613 0.7754192234068203
000160 cb 1b 6a 0a 0a e2 b1 3f 8a 51 e4 55 bb 32 ab bf
       0.06985533479938437 -0.05312142775997859
000170 57 0e d5 e7 d7 f5 ad bf 7f 95 12 99 30 da cd 3f
       -0.058516261148295605 0.23322112535712944
000180 9b 99 ca af 18 b5 90 3f fe 03 b4 ac e6 36 d1 bf
       0.01631582806535335 -0.2689758955530691
000190 76 32 b6 a6 af c3 ed bf 54 60 c4 aa 86 09 ac bf
       -0.9301374679649388 -0.054760177941887506
0001a0 bb 19 c9 b9 ea 89 d2 3f 76 b0 81 18 67 f5 af bf
       0.28966777938003546 -0.06241914915230577
0001b0 70 6b 2d bc 4e 8e c1 3f e5 6d 3f b8 1c 80 ca 3f
       0.1371553820452749 0.20703467365716147
0001c0 f9 b3 72 69 17 ba ec 3f 48 aa a9 00 59 4f e7 3f
       0.8977162417919536 0.7284359944290566
0001d0 3a 19 89 2c ba 2f 85 bf c9 59 5e 28 96 ad ba 3f
       -0.010344938739888055 0.10421122060356604
0001e0 00 5f 92 c4 51 15 a3 bf 7b 2c e9 82 9c bf ed 3f
       -0.0372720291572346 0.9296400601246114
0001f0 2e 6f a4 26 23 e6 bb 3f 15 d0 82 ba 90 8d d5 bf
       0.10898036664405872 -0.33676546300853377
000200 65 54 19 cf 43 bd bf 3f 8c 07 ca 80 1f 60 dc bf
       0.12398170286299288 -0.44336688592022067
000210 eb 1f 53 e4 4b f3 d2 3f f0 1a 27 2c d9 93 a1 bf
       0.29609963700613545 -0.03433111824010904
000220 41 0f be 87 47 ac ce bf 15 5e 4c 0e 96 5a c1 bf
       -0.23963255050704826 -0.13557697008285233
000230 8c 83 82 82 8d dd cd bf e4 91 c5 50 f0 42 bb bf
       -0.23332375404882233 -0.10649015399901135
000240 bf 51 01 37 04 03 eb 3f 1e 95 6d e6 86 36 ea 3f
       0.8441182207412153 0.8191561222599011
000250 95 35 c4 e8 ac 69 e7 bf 70 cb 57 59 3d 54 f3 3f
       -0.7316498323649961 1.208066319461718
000260 e7 ff 96 20 75 1a d2 bf 17 53 9d ed 82 6a ba 3f
       -0.2828648393879107 0.10318773556839421
000270 4f 26 1e 22 b3 1e 86 3f 1e 2a 8d 58 6c 61 e2 bf
       0.010800742605869077 -0.5743924836654661
000280 66 e1 0b 36 75 03 da 3f fe da 30 1c 73 c0 a2 3f
       0.4064610507771448 0.03662452429892048
000290 4b 57 9d 16 be 9d bf bf a0 fb ff 5b 85 54 ba 3f
       -0.12350071003069478 0.1028521871194088
0002a0 a1 87 42 94 f1 28 ec 3f 54 bb dc 0b 24 64 c3 bf
       0.879998006410677 -0.1514935548707067
0002b0 19 d4 47 50 00 63 f0 3f 0c 12 f8 44 06 13 cc bf
       1.0241702209434662 -0.21933058135631744
0002c0 03 5a ff 47 58 4e b7 bf b7 61 10 02 d0 2c eb 3f
       -0.09103919751883187 0.8492202797233891
0002d0 6e dc bf e0 63 bb c1 3f 16 c2 90 21 58 a8 d6 3f
       0.1385311934861621 0.354024918345233
0002e0 2c ee d8 44 23 f6 d8 bf 37 b8 cf f9 c1 46 da bf
       -0.3900230572068917 -0.41056870837826714
0002f0 aa 2b 7f 61 34 1e bc bf 9a 46 a5 70 5d 4b b7 bf
       -0.10983588581363671 -0.09099372863900115
000300 06 e2 6c f6 99 ae bb 3f 37 a0 e3 5d 7b 7e 7b bf
       0.1081329561828924 -0.0067124194158410455
000310 20 11 44 c6 cd 77 91 3f 0d a0 1c 3f 4f ae 70 bf
       0.017058577753247595 -0.0040724845473860795
000320 4f 05 4d ae 3b 58 db bf 88 63 b3 79 c4 52 b8 3f
       -0.4272603227764948 0.09501293154916202
000330 21 30 46 fa 85 7e e0 bf b4 d4 ec 8f 80 99 99 3f
       -0.5154447448890133 0.024999626907818054
000340 ab 48 36 cb fe 7b e4 bf dc c2 af be 13 75 c5 3f
       -0.640136143587616 0.16763541041247876
000350 94 42 f4 0f 95 bc b0 bf 17 9b 62 bc ca e2 d0 3f
       -0.06537753715043443 0.2638422813128484
000360 57 51 01 d6 ae 55 ef 3f 4a 2e 25 36 90 8b d2 bf
       0.979209344843677 -0.2897682694208227
000370 b3 21 a4 3b de 37 cf 3f b4 71 f1 90 b7 d5 a4 bf
       0.24389245903172493 -0.04069303173375563
000380 9e fe 66 a3 6b 22 ae bf 7d ae fe d5 87 dc df bf
       -0.05885635728509196 -0.49783512018141335
000390 80 aa 32 3e ea 79 e7 3f c6 d0 62 83 08 17 e1 3f
       0.7336322035601626 0.5340616766102577
0003a0 07 cf a4 16 bb 77 86 3f e7 b4 17 b5 b9 dc db 3f
       0.010970555904897162 0.4353470104677641
0003b0 ad c6 bf b7 83 bb e4 3f 51 8f 47 b4 06 13 a6 3f
       0.6478899563646415 0.04311390829732765
0003c0 b2 ca e5 23 9b a3 eb 3f 21 54 77 77 68 3f ae 3f
       0.863721437561557 0.059077515204684745
0003d0 1a 1a 3c ec b9 26 f3 3f 8d 00 c2 58 11 32 b9 bf
       1.1969546535416442 -0.09842022339762675
0003e0 53 4f 6c f2 1e b5 93 3f 2d 75 76 07 57 20 ee 3f
       0.019245608850794692 0.941447748733173
0003f0 21 c2 9e 66 49 9f d6 bf ca af d1 75 ea 75 cb bf
       -0.3534720899724864 -0.21453600647816834
000400 3f 48 31 46 df 6d 8c bf fb 07 d6 31 ad 9d e1 3f
       -0.013881439523320547 0.5504976247177632
000410 dc 2a c9 84 9e 25 e6 bf 89 e1 63 a3 56 9c ee bf
       -0.6920921891663414 -0.9565842810834947
000420 d1 c5 75 a2 d7 37 b3 bf bb 82 5d 5b 67 63 e8 3f
       -0.07507083622274215 0.7621342453458831
000430 96 6d 6e 4f 69 3e bb 3f d7 d6 3a 67 cf 76 c7 3f
       0.10642107190363101 0.18331329861182752
000440 8e c8 d1 20 1a bb c4 bf be ae 68 b6 1f 24 b5 3f
       -0.16195990183365833 0.08258245662062344
000450 df 08 65 65 a1 1d e2 3f 4b 13 0a 86 2b a9 df 3f
       0.5661169987072546 0.4947003182390303
000460 df 01 07 47 5b 3e e5 3f da 78 63 80 ac 78 88 bf
       0.663861883855187 -0.011948917072399135
000470 9f de 01 6a 30 99 81 3f c1 7a ed e2 a4 b5 a4 bf
       0.008592966303907544 -0.04044833440888374
000480 c8 a1 33 ba ae 63 b0 3f b6 d1 0c 7e 30 e0 d1 bf
       0.06402103467883713 -0.2793084364850772
000490 c9 8d 14 ba 13 5a d7 3f 42 08 30 db 24 cc b0 3f
       0.3648728673162763 0.06561498976955796
0004a0 d4 7b 20 a7 50 77 b4 3f 64 aa 57 39 61 40 e2 bf
       0.07994560318228078 -0.5703588600129703
0004b0 19 e9 25 78 a5 0d 97 bf 7f c7 0f 44 a4 1e b5 3f
       -0.022512994249589278 0.0824988046804531
0004c0 6d a6 85 a7 eb 72 ea 3f 46 7c 29 f2 2c a9 e0 bf
       0.8265283843913501 -0.5206513147094334
0004d0 eb 87 0f 54 59 1d d2 bf c8 04 93 c7 af c1 94 bf
       -0.2830413170723875 -0.020270105892227247
0004e0 81 09 f9 90 20 fd 70 bf 75 fb 2e 82 9c 11 de 3f
       -0.0041476509209722465 0.469824912197445
0004f0 03 35 ed d8 83 ba e9 bf 47 3a 09 cb f8 6f b0 bf
       -0.8040179478499855 -0.06420855481085495
000500 91 7a 40 ce 36 c6 ae 3f bb 10 26 ba fb b5 c5 bf
       0.060106003453474284 -0.16961618985454216
000510 b9 f8 25 4b 3a b1 e7 bf 1a d1 d3 da 74 65 ee bf
       -0.7403842418423415 -0.9498848222706642
000520 9e dc 94 0a f4 f2 e8 bf 89 c9 29 cc b6 52 c6 bf
       -0.7796573836011651 -0.1743992325678614
000530 ba 46 ab b0 c3 e5 a3 3f d8 de b7 d7 fb 02 d1 3f
       0.038862338367505925 0.26580711427912496
000540 70 5f 63 e9 c1 2d c0 3f fc 40 0d 9f 9c e9 e7 bf
       0.12639640708834632 -0.7472670656661928
000550 51 a5 4d 7c 6e 51 b5 3f a0 a4 70 7e 0a af c6 3f
       0.08327379736660602 0.17721682714298925
000560 e9 34 2a ba d2 da d8 3f 84 e6 9a e0 7a 77 c7 bf
       0.3883559053436572 -0.18333373992009083
000570 e0 54 43 24 25 96 83 3f 48 4d 88 ad 4a 95 b2 bf
       0.009563722771796568 -0.07259051071769307
000580 e9 91 44 11 3d 77 ac 3f aa f0 f4 93 a8 77 ae bf
       0.05559721790112688 -0.05950667196381805
000590 f5 99 9f 1e b2 06 df 3f 47 4f 2c e4 f4 0a a0 3f
       0.4847836779648838 0.03133359227481818
0005a0 da c8 c3 73 8c b1 d4 3f 80 93 ad 12 27 eb d6 3f
       0.32333670907168044 0.35810257743860774
0005b0 03 4a 2a 98 6d 76 a0 3f cd 44 4f 06 0e 61 e4 bf
       0.032153534722187536 -0.6368475077853418
0005c0 97 31 e5 68 77 fc 9e 3f 76 a2 b9 5e 28 40 ab 3f
       0.03025995805482892 0.05322385937035261
0005d0 04 82 5d 6b 37 81 c8 bf 2a 0c 12 84 dc bf f1 3f
       -0.19144337408489787 1.1093411597255547
0005e0 32 a1 dd 79 c6 c3 e2 3f e6 7f 5f 50 62 3c c4 bf
       0.5863983516874554 -0.15809277462449173
0005f0 80 b3 00 1e f5 ce f3 3f a3 6e 12 f8 89 6f b4 3f
       1.2380267307264319 0.07982694918103532
000600 c8 90 20 c4 e1 06 e6 bf e5 a1 ed f8 4e 92 ee bf
       -0.6883400755509905 -0.9553599225883401
000610 5d 0d 54 65 3d 29 e8 3f 51 66 0f a3 8b 94 c3 bf
       0.7550341586178707 -0.15297074758454923
000620 9f 93 63 44 a0 d6 d6 bf 6e 65 e8 14 a4 64 cb bf
       -0.35684973410234905 -0.21400881787193832
000630 3f b0 3d cc 77 a4 d8 bf 3f 97 54 f1 44 b4 b2 3f
       -0.3850383276501396 0.07306319133621474
000640 74 15 36 ec a1 cc e7 bf 4a f4 42 6f 09 51 d7 3f
       -0.7437295545102374 0.36432109704384585
000650 d2 27 39 7f e0 1c 9b bf 44 46 0e dc 12 8d cf bf
       -0.026477344288913525 -0.24649272675428524
000660 6b e6 72 86 d5 0d d6 bf ab 4a 20 32 8c e5 d4 3f
       -0.34459436540382765 0.32651047606592937
000670 ad 0c f6 53 55 01 ee 3f 01 7c 7d 49 21 fa 90 3f
       0.9376627578607405 0.01657917033241674
000680 d5 f6 c1 39 58 e3 68 3f ce 96 7e a8 5d ad ee 3f
       0.0030380938679276195 0.9586628237636547
000690 8b f7 8b 54 58 e8 a2 bf a9 e4 77 fb e1 af 68 3f
       -0.03692890197815676 0.003013554927517055
0006a0 e0 1b 2b be d0 a3 e0 3f 2c 57 2d f1 4b ba 76 3f
       0.519996997282643 0.005548760079212827
0006b0 78 0f 4f b0 75 fc cf bf 12 fc 41 d2 1d c8 d5 3f
       -0.24989195927457408 0.34033914120658537
0006c0 32 b7 84 83 7b c5 c8 3f 71 d8 98 50 27 7e c3 bf
       0.19352668687627667 -0.15228740153696976
0006d0 c8 a7 c3 f7 c2 ab d9 3f 31 92 17 4b fb 03 7e bf
       0.4011084956715618 -0.0073280159135476345
0006e0 76 33 ba 69 67 77 e2 bf 94 2d 6b 91 6a 1e d9 bf
       -0.5770756783473263 -0.3924814624885695
0006f0 fb f8 2f 12 be 1f b7 3f b0 49 af c1 59 a0 d7 bf
       0.09032810157802722 -0.3691620246364904
000700 a4 af f0 39 74 80 c9 3f 6d 7f e1 eb e8 6e cb 3f
       0.19923260525808673 0.21432219998950633
000710 c8 a5 c3 aa 79 f9 ec 3f 85 f2 00 f7 d4 89 c8 3f
       0.9054535231818415 0.19170629559257094
000720 9f 98 3d ac d4 a6 ed bf 45 d3 96 df d9 ac aa 3f
       -0.9266150821756759 0.05209999899253729
000730 78 89 0f 55 b6 f8 e8 bf fe 5a c0 a6 67 00 7a bf
       -0.7803603803006771 -0.00634804238145281
000740 d5 5f 26 6c fb c6 9f bf 3a e4 e3 77 82 f7 d9 bf
       -0.0310324940452061 -0.40573178966548407
000750 3d 64 e9 59 b5 3b 9c 3f 68 7c b5 4b 39 36 db 3f
       0.02757151948239688 0.42518455880594397
000760 f8 0a 21 48 ee c8 e1 3f 8f d5 64 9b 81 2b e7 bf
       0.5557776840945214 -0.7240608248745718
000770 d9 41 3b df 8c a1 bc 3f 69 d8 5a 75 29 51 8e bf
       0.11184006166445871 -0.01480324162853837
000780 9d 34 20 6a 28 e6 e6 3f 37 47 81 12 9b 49 e6 bf
       0.71559544303604 -0.6964850770402568
000790 02 40 6a 53 14 6c c8 bf b5 29 bb 57 50 47 80 3f
       -0.19079832146644554 0.007948520352688651
0007a0 13 96 fb d8 6a d9 84 bf 3a 9a 76 9f 8a 66 da bf
       -0.010180315729893008 -0.41250863621317857
0007b0 66 de 9f 91 f9 d7 e7 3f 5d be 65 9a c9 d8 ed bf
       0.7451141208866374 -0.932713319356434
0007c0 df 88 b0 be d5 ab e2 3f 7f 3e 47 8b 8d 69 90 bf
       0.5834759449392343 -0.016027652383682863
0007d0 a3 0d 2c de 8d 3f 98 bf 05 5b 0a 9f 86 f7 e9 bf
       -0.023679939923579984 -0.8114655596026245
0007e0 a0 bc ed 13 6a 0f e5 3f 86 35 90 8d 56 5d e9 bf
       0.6581316365462904 -0.7926438107403306
0007f0 6c 57 df 4f 69 51 96 3f 8c e9 15 ca d2 28 a2 bf
       0.021794934749628167 -0.03546770779481098

arr_1 (column-major) f8 [100, 100]
000000 9f f4 fd 59 73 71 b1 3f 9a c4 15 a0 9a b9 cf bf
       0.06813736865111018 -0.2478516847291175
000010 e2 75 e3 8a bd 9e a1 3f d4 e4 5d 0d d9 88 be 3f
       0.03441421814362024 0.1192756326326106
000020 62 b4 4f c8 2f 7c cc bf 6b 1a 1d 18 30 91 95 3f
       -0.2225398758013482 0.021061660262854092
000030 c4 21 68 92 78 bc ba bf dc 8b 49 48 b1 12 9f bf
       -0.10443833898910443 -0.030344743763986645
000040 c9 06 79 2f 86 be c2 bf b3 cc 7e a5 50 46 75 3f
       -0.14643933599477624 0.00519401075864605
000050 b1 bb 64 39 fb 3f a6 3f 3a c0 94 ba ed ba 7c bf
       0.04345688891986955 -0.007014206531764039
000060 a1 fd ac 2b df 4d b6 bf 5d a7 22 25 2a fa c0 3f
       -0.08712572876264925 0.1326344186139136
000070 e6 d5 f2 ef d4 c4 c0 3f 44 89 44 2b 48 4c c3 3f
       0.1310068294166477 0.15076543915444962
000080 80 e8 7b bf df 6c cb bf d7 ee ea 2f 09 bb c4 bf
       -0.2142600712757634 -0.16195788230640204
000090 7e 8f 96 a6 41 e3 be 3f e0 ba 58 59 fa 8c bd 3f
       0.12065515820591874 0.11543240243257058
0000a0 8a aa 4c 5f 14 5e b4 3f f7 52 d7 7a 8b 4d c9 3f
       0.07956054045340913 0.19767898080922183
0000b0 72 50 be fd bf c4 91 bf d1 2c 94 a2 0d d1 96 3f
       -0.017352104055661184 0.022281849906943322
0000c0 d0 1f b9 f9 2a 19 b1 bf b6 01 0b b3 b8 aa 98 3f
       -0.06679028126484288 0.02408875077048985
0000d0 de 80 74 43 a0 37 9a 3f 50 f8 18 0d ce ef 72 3f
       0.025602821461803475 0.004623227012016853
0000e0 18 05 f6 8e 93 67 80 bf d9 a3 48 9e 45 33 81 3f
       -0.008010056305240584 0.008398574726998053
0000f0 f6 31 b2 37 10 68 bc bf 4d c9 16 b2 83 9b c2 bf
       -0.11096288070456936 -0.1453709239554634
000100 1c db 87 da aa 39 d1 3f c4 73 45 bb d4 9b b6 bf
       0.2691447385872594 -0.08831529209187666
000110 7a 94 44 e7 a2 df c6 3f 32 62 63 88 1e 56 be 3f
       0.17869983951928586 0.11850157575407463
000120 67 48 2b 15 83 e5 c0 bf 79 51 8e b2 74 36 b4 3f
       -0.13200415166517418 0.07895593032146121
000130 7c 91 2c c8 c3 40 c4 bf 4d 20 d5 f2 af c2 7a bf
       -0.15822646402478913 -0.006533324526863349
000140 f9 4e ca 52 c2 d7 ca bf ee f0 ea c7 e0 f9 af 3f
       -0.2097094444512704 0.062453293231983995
000150 ba c6 5c a9 6a 3f 82 3f 30 8b 48 f2 c9 36 d2 bf
       0.00891002015450525 -0.2845940462158749
000160 77 5c 08 12 26 06 b4 3f b1 2d f1 47 20 88 b6 bf
       0.07821882190943251 -0.08801461941145906
000170 28 a3 86 7e 06 d8 b1 3f 44 3c 5e 7c c9 87 a6 3f
       0.06970253552448169 0.04400472300687189
000180 11 91 55 12 17 c4 b5 3f c8 fb ad 0c bd 77 ba bf
       0.08502334783185385 -0.10338956412850486
000190 a0 db 6f a1 9a 3a b0 3f 2e 49 f8 4d af e5 ac bf
       0.06339422646838822 -0.056439855830961214
0001a0 6b 9f 23 5a 84 ba 95 3f 1f 92 2f 87 17 0a b5 3f
       0.02121931839147299 0.0821852402728571
0001b0 d6 06 b6 7f ab 23 cd 3f 20 03 6b fb c6 29 a0 3f
       0.22765105949297632 0.03156873530452331
0001c0 99 a6 ca a2 6e d8 bc 3f a5 b6 88 8d 48 2c a1 bf
       0.11267749285129937 -0.03354098060331737
0001d0 91 fc 93 46 7a d3 a0 3f 09 a2 84 30 43 4b b3 3f
       0.032863446345794085 0.07536716398738731
0001e0 8c e9 af 2d a6 5e a7 bf b4 c5 5c fa d7 65 81 3f
       -0.04564399059013899 0.008495032623247002
0001f0 69 c0 d1 9a 47 63 bd bf fd 66 fb 7b 27 ad 90 bf
       -0.11479613809365365 -0.016285530988944242
000200 4b ad dd a1 63 d7 69 3f 5b a7 7a 34 df b2 ba 3f
       0.003154463381113059 0.1042918685076563
000210 b5 ec b5 70 c2 44 b0 bf a3 04 ba 16 70 68 bc bf
       -0.06354918719982801 -0.11096859507417149
000220 60 4f 87 5e f1 ae 8a bf c3 60 76 e2 bb 37 a0 bf
       -0.01302898950317627 -0.03167521609720005
000230 e7 41 bb 5c 0a 0f c3 bf d8 00 f7 67 3b 8a b7 bf
       -0.14889649894622822 -0.09195300377087123
000240 41 d3 6b 2f 4e ea 9f 3f a7 94 8e 63 be 32 53 bf
       0.031167241711006047 -0.0011717662111803502
000250 be 1f 00 77 62 3a b4 3f 51 46 16 c7 b9 70 be 3f
       0.07901587872777235 0.11890755758784023
000260 7a 4a 1d 51 ef e0 c7 bf 54 e4 b4 98 c5 8d be bf
       -0.1865519662920468 -0.11935076692761132
000270 03 2c 46 d1 17 37 c2 bf 7a d2 4d 34 1a c2 a3 3f
       -0.1423063060613857 0.03859025848843074
000280 93 1c 58 bb fc 59 b4 bf 93 3b 7e c3 2a e5 b3 bf
       -0.07949809621651331 -0.07771556160717656
000290 94 d3 0b ef dc 3c c6 bf ad 5f 7a c6 04 70 9d 3f
       -0.17373239204576107 0.028747629751336202
0002a0 d5 fc 1c 3e 92 40 bd bf 36 ae c5 d2 90 da 8f 3f
       -0.1142665292400012 0.01555359976983715
0002b0 4e 5c e3 a8 0c 92 c4 3f 1a 61 46 ff 51 6f b7 3f
       0.16070707556238734 0.09154236299798804
0002c0 02 d7 14 cc 07 9f 9b 3f 84 74 8a 3e 5c 15 70 bf
       0.026973840552463997 -0.003926620797440997
0002d0 94 ed 03 d0 3b f0 c4 bf 68 43 3b ed 85 c6 99 bf
       -0.16358134896277632 -0.025171368221723084
0002e0 f8 65 94 d4 0b e1 a8 bf ea 96 28 14 5f d4 c0 bf
       -0.04859196634260948 -0.13148106083206496
0002f0 07 8a fa f8 30 11 b6 3f 36 38 6e a5 35 27 a0 3f
       0.08619981840687539 0.03154914516845546
000300 12 d0 31 b1 f2 cf ae bf 1a 80 ce d0 ad 92 a0 3f
       -0.06018026745815076 0.03236907171162802
000310 89 4d 29 12 24 62 9e 3f 08 f4 83 0f 25 e4 73 bf
       0.02967125283096331 -0.00485624768066107
000320 10 72 96 56 19 cd 96 3f 69 b2 d8 c8 47 9e a4 3f
       0.02226676550854917 0.04027008368243374
000330 2d 20 38 4b 13 73 8f bf e5 4f 54 a0 6b 73 ad 3f
       -0.015356207592972815 0.057521212884381424
000340 f3 e5 c3 f7 a0 0c 85 3f 5b e6 76 1f ed 85 76 3f
       0.010277993737406432 0.005498815785750811
000350 dc 9e d9 09 ac 93 b1 bf f0 81 e6 90 5f fe a8 bf
       -0.06865954628448939 -0.04881571430019338
000360 c7 76 cf 93 d7 6c cc bf 94 87 5d b6 b5 97 b3 3f
       -0.22207159726433742 0.07653365804938367
000370 4a 78 0e ba d4 e5 c3 bf 24 d5 7c c2 86 3f af bf
       -0.15545138439932976 -0.06103154300800842
000380 54 b0 42 83 f4 c9 bb 3f c4 6c fa 7d 41 5e 92 bf
       0.10855034069635511 -0.017937682451343986
000390 ae a3 67 2f cf c3 b2 3f bd 76 11 ff 1c f4 8f bf
       0.07330031306595572 -0.015602327856125137
0003a0 6f 65 78 b0 dc 8c a5 bf 8a cf 33 7a 9a 15 7f 3f
       -0.0420903172891468 0.0075889620086292495
0003b0 19 41 8b 86 8f 31 d0 3f 76 47 88 7a 71 4b b3 bf
       0.25302494181689067 -0.0753699230338308
0003c0 00 41 87 03 35 81 a4 3f e0 a2 27 c7 04 e3 b8 3f
       0.04004827182837012 0.09721402990511363
0003d0 60 69 f5 2a 72 66 b8 3f c8 39 2e 74 82 74 c3 bf
       0.095313201415967 -0.151993090370935
0003e0 a9 a0 bc 31 e1 be cd 3f 9d 1a bb 7e 25 6f a8 bf
       0.23238768509441357 -0.047722980232312674
0003f0 40 23 92 7f 82 b0 b0 3f 9d f3 14 4c 1d ff aa 3f
       0.065193325181224 0.05272761872991014
000400 a7 f6 42 14 ec e0 bd bf 54 67 ec 76 54 b5 c1 bf
       -0.1167132901636828 -0.13834625059899486
000410 38 ac 24 84 07 ec c7 bf de 8d bd e5 7d b7 ad 3f
       -0.1868905444365241 0.058040556234825166
000420 ee 8a 2a 30 2b 2a bb bf 17 33 a9 c0 f7 51 a8 3f
       -0.10611219335491359 0.04750036455934586
000430 90 62 30 ba 27 06 b7 bf b7 7e 49 0b a6 d8 ae bf
       -0.08993767066602687 -0.060246647718256545
000440 4b 67 ca c3 f2 6c ba bf 5b 24 2b 0a 80 c2 a2 bf
       -0.10322491912884606 -0.03664016842010006
000450 f8 7c f2 78 48 a6 87 3f 3a 58 8b e8 f5 b0 cc bf
       0.01154762858487722 -0.224150408312825
000460 c6 88 51 c3 f3 39 86 bf f6 01 9e d7 fd 36 b0 3f
       -0.010852722547671678 0.06333910478679869
000470 ea 9c 33 fc 16 3c 7a 3f c1 06 12 6a 9a 66 aa bf
       0.006404962335387435 -0.05156405014805677
000480 b2 32 10 7d a3 66 9a bf 0f aa f0 75 2c b4 b9 bf
       -0.025782160290008967 -0.10040548209568832
000490 82 f8 a9 b1 61 e8 c3 3f 74 87 f3 2c 53 ce a5 3f
       0.15552922415730924 0.04258975909921406
0004a0 2f 1a 4e 9b b5 3b a1 3f 90 4e 4c ad 0e ef b1 bf
       0.03365867157758761 -0.07005397540006641
0004b0 64 9b 0e 2b cc 9a c2 bf 76 31 d7 64 ea 0f cd bf
       -0.14534904577632368 -0.22704820560319278
0004c0 45 3e 7c f6 be 54 ab 3f 44 82 3b 2e 1b f7 8b bf
       0.053380935276547116 -0.013654911373522378
0004d0 eb 1e b8 25 b8 50 c3 bf 9f 66 1b fb c1 36 7c bf
       -0.1509008583236587 -0.006888158548201822
0004e0 77 13 bd 36 1b a5 94 bf 33 56 4d 56 df 77 c1 3f
       -0.02016108056638496 0.1364707156559902
0004f0 e4 dc 5d af 4d c3 c1 bf 84 24 17 e2 c8 dc a6 3f
       -0.13877268851113123 0.044653203581739326
000500 68 a0 63 35 9c cd 90 bf 5a 3b 75 f3 f7 93 aa bf
       -0.016409340628257857 -0.051910160511957584
000510 0f bd 64 c8 46 0a a5 3f f8 74 1c 6c bd 6d bf bf
       0.041094028436754575 -0.12276824845726597
000520 d4 23 5a 4a 38 a1 8a 3f 51 a3 18 b9 f6 40 9a bf
       0.01300281502632742 -0.025638442084672978
000530 c6 24 d3 10 b4 16 91 bf bc fb ef 5e 19 0d a4 bf
       -0.016688169028189724 -0.03916243823913798
000540 c7 01 c1 01 38 86 83 bf 04 e8 d4 75 2c 58 c9 3f
       -0.009533345750356482 0.19800334695338517
000550 fc f7 44 3e ba a6 b0 bf 7a 4c b2 ee 03 4f c5 3f
       -0.06504405994652979 0.16647385745145354
000560 e1 b0 9c 83 06 5c 66 3f 20 1a 87 b0 b4 83 a5 3f
       0.0027294280270294545 0.042020460652157476
000570 ff d8 dd 3c 33 83 83 bf 70 2c 2f b3 c9 4d 95 bf
       -0.009527588171959865 -0.020804549752750423
000580 68 11 4c b1 48 6c cc 3f 56 93 5f 70 fb 23 ab bf
       0.22205456406676238 -0.053008897273491826
000590 db ac 0e eb a9 1f bc bf 31 7e 01 37 a9 a5 cb 3f
       -0.10985815037445283 0.21599307237464552
0005a0 c5 18 c0 79 97 1a b7 3f 84 fe c1 4c 8e 3b a4 bf
       0.09024950716420495 -0.03951687514290561
0005b0 2c c5 19 1d 34 00 bb bf 7b be f1 85 97 6b c8 bf
       -0.10547185621705485 -0.19078344383477827
0005c0 e7 d7 0b 5d 56 25 90 bf a1 ec fa f4 92 c8 be bf
       -0.01576743071469613 -0.12024801712952861
0005d0 b8 99 1a 58 ab b7 ba bf 81 58 b8 62 8e 5f 92 bf
       -0.10436507130598371 -0.017942642951390034
0005e0 6e bd dc ca 69 e3 c8 3f d8 fa 0e 95 4b 0b b9 3f
       0.19444010167488152 0.09782860173343566
0005f0 ee 15 33 3d 44 95 bf 3f 97 f3 ed 9c 1e 00 a9 bf
       0.12337137693528863 -0.04882903733866966
000600 61 99 94 03 f4 d2 ab 3f 4a dd c8 57 3e c5 82 3f
       0.05434382003504613 0.009165274671529961
000610 61 c5 84 45 a1 59 a4 bf ca ea 8b 81 c6 a5 c9 3f
       -0.03974632238022014 0.20037156415476992
000620 87 97 85 69 66 6b b5 bf 1d 22 08 9a 98 7d bd bf
       -0.0836700446721733 -0.11519769440213463
000630 40 fe 80 f8 b4 02 94 bf 52 ea fd 42 4d 21 c3 bf
       -0.0195415760683757 -0.14945379038893464
000640 f5 9a f1 d3 e6 31 a2 bf 5c e7 31 05 e2 bc aa 3f
       -0.035536969539682696 0.052222312101504825
000650 2c c7 4c 60 47 9d a1 3f 7b 71 f2 59 fb 00 bf 3f
       0.03440306711708127 0.12110873170826679
000660 75 d4 a9 af a6 48 af bf 72 4f ad ae 15 57 d0 bf
       -0.06110115904167738 -0.25531522806453844
000670 6e c8 45 db 3a f5 be bf 00 ea ed bc 41 e7 85 3f
       -0.12092941144308764 0.01069499357048631
000680 f7 af eb b0 8a d8 bd bf 98 90 62 92 f8 78 b8 bf
       -0.1165854150710287 -0.09559587072232245
000690 7d 13 9b 92 93 34 80 bf 88 8d 34 83 bd cd 82 bf
       -0.007912781631043359 -0.009181480948035739
0006a0 a4 aa f9 9b cd 10 99 3f 29 6e 3a f3 78 d8 a6 3f
       0.024478161473249785 0.04462030381293076
0006b0 26 f2 fa d3 df 0f b8 3f b6 ef 80 0b 86 87 b7 bf
       0.09399222302722218 -0.09191167622424143
0006c0 75 4d 81 82 6a 8d c0 bf 66 ff 63 4b e3 ba 7e 3f
       -0.12931567547148473 0.007502448910827164
0006d0 e4 5d e0 87 9b 01 ba 3f dc 51 c5 51 da 4c 99 bf
       0.10158702914519996 -0.024707232705013613
0006e0 8e 83 e2 11 01 cf c5 bf 76 91 e9 fd 0a dc 71 bf
       -0.1703797662094328 -0.004360239922423728
0006f0 c0 e3 f7 3a f9 14 b5 3f 05 e5 18 dc d5 ff ba 3f
       0.08235128106743073 0.10546623824565778
000700 8c 66 f4 df 7a 1e a9 3f ad 6d 50 b1 8b 1f b6 bf
       0.04906066879102608 -0.08641884879073443
000710 d0 02 a7 2d f2 3a c9 3f bc 2e 48 a0 ee 03 87 bf
       0.19711138943787043 -0.011237968698899585
000720 cf c6 48 b8 5d fd b5 bf 1f 78 1e a4 83 5d 8f 3f
       -0.08589730977180497 0.015315082975401904
000730 5a 6f 66 2d 64 30 b9 bf 12 8b 20 3a 22 fa 70 3f
       -0.09839464291002056 0.004144796084832663
000740 6a 86 58 1a f7 66 a2 3f 04 f7 41 86 50 45 86 3f
       0.03594181248287216 0.010874394509524439
000750 a7 a6 eb 85 ad d7 b0 bf 1f e2 40 1c 82 d6 b5 3f
       -0.06579098243278257 0.08530438604146483
000760 ed 4c 4e 3f 62 75 c7 bf 62 52 8a 69 b9 bf b0 bf
       -0.18326976863008984 -0.06542548014324148
000770 b2 f8 25 a1 6b 41 ab bf 16 f2 2f ad 41 a0 c1 3f
       -0.05323349325316097 0.13770314175043613
000780 47 92 c8 87 74 8d a3 bf 96 eb 26 8b 24 88 ae bf
       -0.03818859250558098 -0.059632436739284575
000790 64 8c 78 b8 39 54 a7 bf 22 5f 3f 94 78 a9 b0 3f
       -0.04556446434823938 0.06508592242550695
0007a0 20 f6 a8 41 75 30 b4 bf e2 bd 61 f5 cc 5a 9f 3f
       -0.07886441090610008 0.030619814373890615
0007b0 e4 3e b7 c1 93 6e a9 3f 53 95 87 c5 aa ae c3 3f
       0.049671761891316085 0.15376791615487181
0007c0 c0 c5 78 64 69 b5 b1 bf 35 c0 8c 46 63 78 93 bf
       -0.0691743727009202 -0.019013930493372484
0007d0 24 b8 a1 3f ca e9 c1 3f 92 85 0e 65 be 51 b8 bf
       0.13994720561044105 -0.0949973103256723
0007e0 09 26 aa d8 c5 22 b6 3f f5 e1 94 e6 6d c3 b3 bf
       0.08646809138931401 -0.07720076445992403
0007f0 f8 e6 e1 d1 4b 68 9e 3f 99 43 87 18 3f 09 ad 3f
       0.029694733319479888 0.05671116995257037

arr_2 f8 [1, 100]
000000 78 d5 2a 06 a8 e6 ad 3f 2e 60 8b 51 56 41 9b bf
       0.05840039325031915 -0.026616429068639195
000010 9e 0e 43 d4 ae 2f 9e bf 67 fa be af b5 46 ab bf
       -0.029478770928803237 -0.05327384729706779
000020 87 e2 6e be 38 93 86 3f bf c7 fc f7 86 d1 5f bf
       0.011022990523870803 -0.001942045026180214
000030 7e 56 1d ad 74 46 86 bf 9d e4 12 05 f0 76 a1 3f
       -0.010876571209944116 0.03411054670272871
000040 2b a6 87 dc df e8 a7 bf e1 8e ef b3 87 dc 8a 3f
       -0.046698566122199324 0.013115940264419592
000050 d7 b2 a2 85 1e 9d a4 3f af f1 5d 8a b9 fa 84 bf
       0.04026122456830244 -0.010243844542622364
000060 3d 46 6d 71 eb 07 55 bf 8c e6 50 fb 43 68 93 bf
       -0.001283626484753233 -0.018952429021942538
000070 3d 6e 31 13 7f 0e a4 3f 92 57 1e 00 6d 09 93 3f
       0.039173098652750295 0.018590644008859743
000080 61 05 e8 77 8a 2c 9e 3f d2 d7 03 3a 5f 42 b1 3f
       0.02946678501939937 0.06741900602705123
000090 db 36 1b 9d 99 29 8d 3f e9 03 f5 ae 81 8c 96 bf
       0.014239502055171929 -0.02202036505082453
0000a0 9f b2 57 cc 27 43 b6 3f fa 8e c9 5e 13 46 8f 3f
       0.08696221102554567 0.015270377474002828
0000b0 5f 08 cb f1 b7 e9 77 bf 95 e3 a6 9d 51 72 ab 3f
       -0.005838125737399918 0.05360655831777376
0000c0 00 2a d3 06 5d b1 92 bf 44 4d 75 df fe 55 95 3f
       -0.018254712621265767 0.02083585966950109
0000d0 ce 90 90 22 22 d8 94 bf cf 0d 60 d7 8a 7c 8c 3f
       -0.020355733260786484 0.013909420678834742
0000e0 5a c7 ee 26 cc 42 91 3f b5 74 29 8a 0c 62 82 bf
       0.016856374622597904 -0.00897607609402438
0000f0 4d 97 ae 7f 27 ca 95 bf 5f 62 0c 6e ab 72 78 3f
       -0.021278969925013148 0.005968732498125988
000100 62 ce a9 64 33 c0 a5 bf 2b 1d 40 c9 95 1e 83 3f
       -0.04248200038719287 0.00933568020265215
000110 68 9b 59 1a d4 de 89 bf 2d a9 75 68 da 65 90 3f
       -0.012632042936457658 0.016013538957318097
000120 8e c3 30 af b3 44 9b bf 22 0f df 51 4a 7b a5 3f
       -0.026629264419344482 0.04195625543027705
000130 c8 2d 88 85 f3 4f a6 3f f3 da 73 81 b6 65 82 bf
       0.043578729677473727 -0.008983064485148051
000140 9f 51 8d c8 4d fb ad 3f d1 55 be 53 8e 50 8b bf
       0.05855792115349633 -0.0133372420603263
000150 86 3b 96 ce bc 72 a3 bf 1e 64 cd 2d 99 cb a7 3f
       -0.03798475286304552 0.0464752071772596
000160 f0 61 4e 88 2a 28 af bf 40 b5 06 95 38 f4 8c 3f
       -0.06085331834691832 0.014137689636153028
000170 a3 70 28 bb 00 f4 7b bf 95 b0 7d f1 f8 46 71 bf
       -0.00682449613171002 -0.0042180752132986625
000180 f1 cd 78 56 a7 96 71 bf c7 06 93 fc 33 3d 78 3f
       -0.004294065154272429 0.005917742798546128
000190 69 eb f9 77 51 a7 8e bf 18 b0 0e 91 44 21 9a 3f
       -0.014967571710476428 0.025517531732177273
0001a0 e6 cf 0d ee 50 96 95 bf 18 52 ff 82 1b 6f 9a 3f
       -0.021081223039303064 0.02581446635288573
0001b0 96 87 31 68 f7 fc a3 3f 7c 4a 20 08 6d 03 b6 3f
       0.0390393557252217 0.08598977516548162
0001c0 74 e0 43 5a aa 8d 84 3f 97 7d 61 ca 77 d0 91 3f
       0.010035830382989476 0.017396804549546365
0001d0 3c d6 e1 87 1e 95 a6 bf 1d 67 bc 5d 91 e6 46 bf
       -0.04410643967359504 -0.0006988725467380362
0001e0 ec 70 b0 a4 47 b6 69 3f 71 17 da 2f 19 bc a0 bf
       0.0031386756213703706 -0.03268507680063138
0001f0 67 55 60 92 c5 df 9a 3f 6a 75 9e 72 df 2e 4e 3f
       0.02624424653921178 0.000921115022027114
000200 62 63 6e 9b cb 8d b4 bf 00 f0 bd a8 ca 0f 90 bf
       -0.08028862518984917 -0.015685240315619353
000210 5f 29 9a 05 9f 44 6a 3f 5a c1 88 bd 5d dd 94 3f
       0.0032065492530978647 0.020375694936036616
000220 e0 6c a0 aa 94 66 7c 3f a6 0b 0a bd 4e ca 8c bf
       0.006933766106182321 -0.014057746070880683
000230 2f 9f 38 e8 d0 4a bb 3f 49 98 42 9a 2e 40 a0 3f
       0.10661035222494485 0.03173967011507323
000240 0d f0 68 38 a8 59 6f 3f e7 17 34 97 ba 5b 92 bf
       0.003826931529401284 -0.01792804286835539
000250 34 ad a1 00 d5 14 98 bf 54 15 1f 5c 73 2f 8c bf
       -0.023516967929407787 -0.013762379883597
000260 4c e1 c4 3c 49 be c0 bf f1 c6 d4 60 85 0e 8a 3f
       -0.1308070704196872 0.012723009126236447
000270 b1 7d b2 ef a4 ae 95 bf 8b 7b 4d 4c 8a 48 80 bf
       -0.02117402756686965 -0.00795085950238474
000280 e1 ae 80 64 30 1a 9b bf 84 a0 74 f0 1b dc 91 bf
       -0.0264670907346688 -0.017441212226146266
000290 e4 c4 bc d1 f7 b7 5b bf 30 bf 0b c6 44 8a 83 bf
       -0.001691810618421657 -0.009541070264702606
0002a0 21 07 b2 9f ac 0f 97 3f 98 ce be 59 60 be 7c bf
       0.022520730254206648 -0.007017494553952418
0002b0 e3 8c d7 5c a7 66 96 bf 9f 2c bd 66 a3 c0 a6 bf
       -0.0218759680191284 -0.04443846348893853
0002c0 41 87 97 e9 08 ac a4 bf b8 4a 35 93 03 c9 a1 3f
       -0.040375021471631196 0.03473673984503506
0002d0 53 b3 67 c0 da 81 65 3f 7a 72 6d 55 80 1e 9b 3f
       0.0026253960124819425 0.026483540739138146
0002e0 bd ed 99 29 e6 13 a4 bf f9 8a 95 38 95 33 94 bf
       -0.03921431787326977 -0.01972802312719588
0002f0 d9 1c 2f c6 7e 5e 6d 3f a6 5f 9a af fe 16 71 bf
       0.0035850978906385275 -0.0041723202390570365
000300 8a 5b ff ec 95 1c 9d 3f 74 a5 a9 29 95 8b 9d bf
       0.02842935809152495 -0.02885277811802696
000310 f1 87 81 2a 32 88 a0 3f 00 1e 22 b6 66 01 95 bf
       0.03228909272071679 -0.020513157717259034

arr_3 (column-major) f8 [100, 2]
000000 00 00 00 00 00 00 00 00 00 00 00 00 00 00 00 00
       0.0 0.0
000010 00 00 00 00 00 00 00 00 00 00 00 00 00 00 00 00
       0.0 0.0
000020 00 00 00 00 00 00 00 00 00 00 00 00 00 00 00 00
       0.0 0.0
000030 00 00 00 00 00 00 00 00 00 00 00 00 00 00 00 00
       0.0 0.0
000040 00 00 00 00 00 00 00 00 00 00 00 00 00 00 00 00
       0.0 0.0
000050 00 00 00 00 00 00 00 00 00 00 00 00 00 00 00 00
       0.0 0.0
000060 00 00 00 00 00 00 00 00 00 00 00 00 00 00 00 00
       0.0 0.0
000070 00 00 00 00 00 00 00 00 00 00 00 00 00 00 00 00
       0.0 0.0
000080 00 00 00 00 00 00 00 00 00 00 00 00 00 00 00 00
       0.0 0.0
000090 00 00 00 00 00 00 00 00 00 00 00 00 00 00 00 00
       0.0 0.0
0000a0 00 00 00 00 00 00 00 00 00 00 00 00 00 00 00 00
       0.0 0.0
0000b0 00 00 00 00 00 00 00 00 00 00 00 00 00 00 00 00
       0.0 0.0
0000c0 00 00 00 00 00 00 00 00 00 00 00 00 00 00 00 00
       0.0 0.0
0000d0 00 00 00 00 00 00 00 00 00 00 00 00 00 00 00 00
       0.0 0.0
0000e0 00 00 00 00 00 00 00 00 00 00 00 00 00 00 00 00
       0.0 0.0
0000f0 00 00 00 00 00 00 00 00 00 00 00 00 00 00 00 00
       0.0 0.0
000100 00 00 00 00 00 00 00 00 00 00 00 00 00 00 00 00
       0.0 0.0
000110 00 00 00 00 00 00 00 00 00 00 00 00 00 00 00 00
       0.0 0.0
000120 00 00 00 00 00 00 00 00 00 00 00 00 00 00 00 00
       0.0 0.0
000130 00 00 00 00 00 00 00 00 00 00 00 00 00 00 00 00
       0.0 0.0
000140 00 00 00 00 00 00 00 00 00 00 00 00 00 00 00 00
       0.0 0.0
000150 00 00 00 00 00 00 00 00 00 00 00 00 00 00 00 00
       0.0 0.0
000160 00 00 00 00 00 00 00 00 00 00 00 00 00 00 00 00
       0.0 0.0
000170 00 00 00 00 00 00 00 00 00 00 00 00 00 00 00 00
       0.0 0.0
000180 00 00 00 00 00 00 00 00 00 00 00 00 00 00 00 00
       0.0 0.0
000190 00 00 00 00 00 00 00 00 00 00 00 00 00 00 00 00
       0.0 0.0
0001a0 00 00 00 00 00 00 00 00 00 00 00 00 00 00 00 00
       0.0 0.0
0001b0 00 00 00 00 00 00 00 00 00 00 00 00 00 00 00 00
       0.0 0.0
0001c0 00 00 00 00 00 00 00 00 00 00 00 00 00 00 00 00
       0.0 0.0
0001d0 00 00 00 00 00 00 00 00 00 00 00 00 00 00 00 00
       0.0 0.0
0001e0 00 00 00 00 00 00 00 00 00 00 00 00 00 00 00 00
       0.0 0.0
0001f0 00 00 00 00 00 00 00 00 00 00 00 00 00 00 00 00
       0.0 0.0
000200 00 00 00 00 00 00 00 00 00 00 00 00 00 00 00 00
       0.0 0.0
000210 00 00 00 00 00 00 00 00 00 00 00 00 00 00 00 00
       0.0 0.0
000220 00 00 00 00 00 00 00 00 00 00 00 00 00 00 00 00
       0.0 0.0
000230 00 00 00 00 00 00 00 00 00 00 00 00 00 00 00 00
       0.0 0.0
000240 00 00 00 00 00 00 00 00 00 00 00 00 00 00 00 00
       0.0 0.0
000250 00 00 00 00 00 00 00 00 00 00 00 00 00 00 00 00
       0.0 0.0
000260 00 00 00 00 00 00 00 00 00 00 00 00 00 00 00 00
       0.0 0.0
000270 00 00 00 00 00 00 00 00 00 00 00 00 00 00 00 00
       0.0 0.0
000280 00 00 00 00 00 00 00 00 00 00 00 00 00 00 00 00
       0.0 0.0
000290 00 00 00 00 00 00 00 00 00 00 00 00 00 00 00 00
       0.0 0.0
0002a0 00 00 00 00 00 00 00 00 00 00 00 00 00 00 00 00
       0.0 0.0
0002b0 00 00 00 00 00 00 00 00 00 00 00 00 00 00 00 00
       0.0 0.0
0002c0 00 00 00 00 00 00 00 00 00 00 00 00 00 00 00 00
       0.0 0.0
0002d0 00 00 00 00 00 00 00 00 00 00 00 00 00 00 00 00
       0.0 0.0
0002e0 00 00 00 00 00 00 00 00 00 00 00 00 00 00 00 00
       0.0 0.0
0002f0 00 00 00 00 00 00 00 00 00 00 00 00 00 00 00 00
       0.0 0.0
000300 00 00 00 00 00 00 00 00 00 00 00 00 00 00 00 00
       0.0 0.0
000310 00 00 00 00 00 00 00 00 00 00 00 00 00 00 00 00
       0.0 0.0
000320 00 00 00 00 00 00 00 00 00 00 00 00 00 00 00 00
       0.0 0.0
000330 00 00 00 00 00 00 00 00 00 00 00 00 00 00 00 00
       0.0 0.0
000340 00 00 00 00 00 00 00 00 00 00 00 00 00 00 00 00
       0.0 0.0
000350 00 00 00 00 00 00 00 00 00 00 00 00 00 00 00 00
       0.0 0.0
000360 00 00 00 00 00 00 00 00 00 00 00 00 00 00 00 00
       0.0 0.0
000370 00 00 00 00 00 00 00 00 00 00 00 00 00 00 00 00
       0.0 0.0
000380 00 00 00 00 00 00 00 00 00 00 00 00 00 00 00 00
       0.0 0.0
000390 00 00 00 00 00 00 00 00 00 00 00 00 00 00 00 00
       0.0 0.0
0003a0 00 00 00 00 00 00 00 00 00 00 00 00 00 00 00 00
       0.0 0.0
0003b0 00 00 00 00 00 00 00 00 00 00 00 00 00 00 00 00
       0.0 0.0
0003c0 00 00 00 00 00 00 00 00 00 00 00 00 00 00 00 00
       0.0 0.0
0003d0 00 00 00 00 00 00 00 00 00 00 00 00 00 00 00 00
       0.0 0.0
0003e0 00 00 00 00 00 00 00 00 00 00 00 00 00 00 00 00
       0.0 0.0
0003f0 00 00 00 00 00 00 00 00 00 00 00 00 00 00 00 00
       0.0 0.0
000400 00 00 00 00 00 00 00 00 00 00 00 00 00 00 00 00
       0.0 0.0
000410 00 00 00 00 00 00 00 00 00 00 00 00 00 00 00 00
       0.0 0.0
000420 00 00 00 00 00 00 00 00 00 00 00 00 00 00 00 00
       0.0 0.0
000430 00 00 00 00 00 00 00 00 00 00 00 00 00 00 00 00
       0.0 0.0
000440 00 00 00 00 00 00 00 00 00 00 00 00 00 00 00 00
       0.0 0.0
000450 00 00 00 00 00 00 00 00 00 00 00 00 00 00 00 00
       0.0 0.0
000460 00 00 00 00 00 00 00 00 00 00 00 00 00 00 00 00
       0.0 0.0
000470 00 00 00 00 00 00 00 00 00 00 00 00 00 00 00 00
       0.0 0.0
000480 00 00 00 00 00 00 00 00 00 00 00 00 00 00 00 00
       0.0 0.0
000490 00 00 00 00 00 00 00 00 00 00 00 00 00 00 00 00
       0.0 0.0
0004a0 00 00 00 00 00 00 00 00 00 00 00 00 00 00 00 00
       0.0 0.0
0004b0 00 00 00 00 00 00 00 00 00 00 00 00 00 00 00 00
       0.0 0.0
0004c0 00 00 00 00 00 00 00 00 00 00 00 00 00 00 00 00
       0.0 0.0
0004d0 00 00 00 00 00 00 00 00 00 00 00 00 00 00 00 00
       0.0 0.0
0004e0 00 00 00 00 00 00 00 00 00 00 00 00 00 00 00 00
       0.0 0.0
0004f0 00 00 00 00 00 00 00 00 00 00 00 00 00 00 00 00
       0.0 0.0
000500 00 00 00 00 00 00 00 00 00 00 00 00 00 00 00 00
       0.0 0.0
000510 00 00 00 00 00 00 00 00 00 00 00 00 00 00 00 00
       0.0 0.0
000520 00 00 00 00 00 00 00 00 00 00 00 00 00 00 00 00
       0.0 0.0
000530 00 00 00 00 00 00 00 00 00 00 00 00 00 00 00 00
       0.0 0.0
000540 00 00 00 00 00 00 00 00 00 00 00 00 00 00 00 00
       0.0 0.0
000550 00 00 00 00 00 00 00 00 00 00 00 00 00 00 00 00
       0.0 0.0
000560 00 00 00 00 00 00 00 00 00 00 00 00 00 00 00 00
       0.0 0.0
000570 00 00 00 00 00 00 00 00 00 00 00 00 00 00 00 00
       0.0 0.0
000580 00 00 00 00 00 00 00 00 00 00 00 00 00 00 00 00
       0.0 0.0
000590 00 00 00 00 00 00 00 00 00 00 00 00 00 00 00 00
       0.0 0.0
0005a0 00 00 00 00 00 00 00 00 00 00 00 00 00 00 00 00
       0.0 0.0
0005b0 00 00 00 00 00 00 00 00 00 00 00 00 00 00 00 00
       0.0 0.0
0005c0 00 00 00 00 00 00 00 00 00 00 00 00 00 00 00 00
       0.0 0.0
0005d0 00 00 00 00 00 00 00 00 00 00 00 00 00 00 00 00
       0.0 0.0
0005e0 00 00 00 00 00 00 00 00 00 00 00 00 00 00 00 00
       0.0 0.0
0005f0 00 00 00 00 00 00 00 00 00 00 00 00 00 00 00 00
       0.0 0.0
000600 00 00 00 00 00 00 00 00 00 00 00 00 00 00 00 00
       0.0 0.0
000610 00 00 00 00 00 00 00 00 00 00 00 00 00 00 00 00
       0.0 0.0
000620 00 00 00 00 00 00 00 00 00 00 00 00 00 00 00 00
       0.0 0.0
000630 00 00 00 00 00 00 00 00 00 00 00 00 00 00 00 00
       0.0 0.0

arr_4 f8 [100, 1]
000000 00 00 00 00 00 00 00 00 00 00 00 00 00 00 00 00
       0.0 0.0
000010 00 00 00 00 00 00 00 00 00 00 00 00 00 00 00 00
       0.0 0.0
000020 00 00 00 00 00 00 00 00 00 00 00 00 00 00 00 00
       0.0 0.0
000030 00 00 00 00 00 00 00 00 00 00 00 00 00 00 00 00
       0.0 0.0
000040 00 00 00 00 00 00 00 00 00 00 00 00 00 00 00 00
       0.0 0.0
000050 00 00 00 00 00 00 00 00 00 00 00 00 00 00 00 00
       0.0 0.0
000060 00 00 00 00 00 00 00 00 00 00 00 00 00 00 00 00
       0.0 0.0
000070 00 00 00 00 00 00 00 00 00 00 00 00 00 00 00 00
       0.0 0.0
000080 00 00 00 00 00 00 00 00 00 00 00 00 00 00 00 00
       0.0 0.0
000090 00 00 00 00 00 00 00 00 00 00 00 00 00 00 00 00
       0.0 0.0
0000a0 00 00 00 00 00 00 00 00 00 00 00 00 00 00 00 00
       0.0 0.0
0000b0 00 00 00 00 00 00 00 00 00 00 00 00 00 00 00 00
       0.0 0.0
0000c0 00 00 00 00 00 00 00 00 00 00 00 00 00 00 00 00
       0.0 0.0
0000d0 00 00 00 00 00 00 00 00 00 00 00 00 00 00 00 00
       0.0 0.0
0000e0 00 00 00 00 00 00 00 00 00 00 00 00 00 00 00 00
       0.0 0.0
0000f0 00 00 00 00 00 00 00 00 00 00 00 00 00 00 00 00
       0.0 0.0
000100 00 00 00 00 00 00 00 00 00 00 00 00 00 00 00 00
       0.0 0.0
000110 00 00 00 00 00 00 00 00 00 00 00 00 00 00 00 00
       0.0 0.0
000120 00 00 00 00 00 00 00 00 00 00 00 00 00 00 00 00
       0.0 0.0
000130 00 00 00 00 00 00 00 00 00 00 00 00 00 00 00 00
       0.0 0.0
000140 00 00 00 00 00 00 00 00 00 00 00 00 00 00 00 00
       0.0 0.0
000150 00 00 00 00 00 00 00 00 00 00 00 00 00 00 00 00
       0.0 0.0
000160 00 00 00 00 00 00 00 00 00 00 00 00 00 00 00 00
       0.0 0.0
000170 00 00 00 00 00 00 00 00 00 00 00 00 00 00 00 00
       0.0 0.0
000180 00 00 00 00 00 00 00 00 00 00 00 00 00 00 00 00
       0.0 0.0
000190 00 00 00 00 00 00 00 00 00 00 00 00 00 00 00 00
       0.0 0.0
0001a0 00 00 00 00 00 00 00 00 00 00 00 00 00 00 00 00
       0.0 0.0
0001b0 00 00 00 00 00 00 00 00 00 00 00 00 00 00 00 00
       0.0 0.0
0001c0 00 00 00 00 00 00 00 00 00 00 00 00 00 00 00 00
       0.0 0.0
0001d0 00 00 00 00 00 00 00 00 00 00 00 00 00 00 00 00
       0.0 0.0
0001e0 00 00 00 00 00 00 00 00 00 00 00 00 00 00 00 00
       0.0 0.0
0001f0 00 00 00 00 00 00 00 00 00 00 00 00 00 00 00 00
       0.0 0.0
000200 00 00 00 00 00 00 00 00 00 00 00 00 00 00 00 00
       0.0 0.0
000210 00 00 00 00 00 00 00 00 00 00 00 00 00 00 00 00
       0.0 0.0
000220 00 00 00 00 00 00 00 00 00 00 00 00 00 00 00 00
       0.0 0.0
000230 00 00 00 00 00 00 00 00 00 00 00 00 00 00 00 00
       0.0 0.0
000240 00 00 00 00 00 00 00 00 00 00 00 00 00 00 00 00
       0.0 0.0
000250 00 00 00 00 00 00 00 00 00 00 00 00 00 00 00 00
       0.0 0.0
000260 00 00 00 00 00 00 00 00 00 00 00 00 00 00 00 00
       0.0 0.0
000270 00 00 00 00 00 00 00 00 00 00 00 00 00 00 00 00
       0.0 0.0
000280 00 00 00 00 00 00 00 00 00 00 00 00 00 00 00 00
       0.0 0.0
000290 00 00 00 00 00 00 00 00 00 00 00 00 00 00 00 00
       0.0 0.0
0002a0 00 00 00 00 00 00 00 00 00 00 00 00 00 00 00 00
       0.0 0.0
0002b0 00 00 00 00 00 00 00 00 00 00 00 00 00 00 00 00
       0.0 0.0
0002c0 00 00 00 00 00 00 00 00 00 00 00 00 00 00 00 00
       0.0 0.0
0002d0 00 00 00 00 00 00 00 00 00 00 00 00 00 00 00 00
       0.0 0.0
0002e0 00 00 00 00 00 00 00 00 00 00 00 00 00 00 00 00
       0.0 0.0
0002f0 00 00 00 00 00 00 00 00 00 00 00 00 00 00 00 00
       0.0 0.0
000300 00 00 00 00 00 00 00 00 00 00 00 00 00 00 00 00
       0.0 0.0
000310 00 00 00 00 00 00 00 00 00 00 00 00 00 00 00 00
       0.0 0.0

arr_5 f8 [1, 1]
000000 00 00 00 00 00 00 00 00
       0.0
